data.pth (torch, 17887 bytes, 6 tensors)

l1.weight f4 [8, 279]
00000000: b525 373f 3aad ea3e 4c58 1dbe 7b6e 083f
00000010: 9056 f83e 1940 b63e e4d2 923e 5980 f3bd
00000020: b363 443f 0092 1f3f 7975 81be 0594 8d3e
00000030: 247b 573f b11e 4fba ae59 0f3f c754 2ebf
00000040: 34af aabe 000f f8be 96d6 733e 7b0b d23e
00000050: 28e9 1c3f bbc3 debe cf68 ad3e 83be 47be
00000060: ba03 34bf 28c4 223f 7c38 813e 2459 f53e
00000070: 9c4b eebc 9e15 c73e edda f13e fcd5 203f
00000080: d03a c63b cd99 83bf b364 6ebe a4df 023f
00000090: 0d31 5ebd 21b2 913f bd0e 3e3f 5cd1 ecbd
000000a0: 3356 1b3f 601b b43e 241f 353f 7c5e a53f
000000b0: 506b 9fbe 2ee9 973d c2fb 28bf d6f7 473c
000000c0: 7d5d bebe 7eae 2dbe 0381 17be 72a5 adbd
000000d0: 3755 50be c059 babd d5bc 1cbe 0e56 bc3d
000000e0: 78a6 fe3d ffef 013e ab8a 6c3f 5639 42be
000000f0: bd55 49bf c4d4 263f ed5e fbbe 284d 153e
00000100: ab35 553f 179c 9c3f a930 fa3c 96d1 c5bd
00000110: 1743 a3be 2f45 cebd 2d0a 683f de95 38bd
00000120: 1045 24be 7d42 1f3f f00c 203e 72b1 e33d
00000130: 76c3 0bbe 055d 253f b7fd de3c 49a4 4c3e
00000140: 0268 393d af78 233f d4bb 613e 1b3a b5bd
00000150: d536 91be aa4f 1dbf e22a 5fbd 1002 7b3f
00000160: b89b f33c 496c 20be 7f63 443f 8d84 163f
00000170: 7559 fdbd 8e4c 8c3c 25c3 1a3f e0d6 843e
00000180: 1958 f03e 1676 ea3e 8296 04bf 4e1c ae3c
00000190: 0c9a 143f b943 74bf 3a09 8c3e 65d9 443e
000001a0: 606f a63e 4602 863e 5e59 01be c9f1 8fbe
000001b0: de2b 103f 68ac dcbe 2b3d 37bc f670 75bf
000001c0: 3fd5 e2bd 9b53 2ebf a660 753f da32 8abd
000001d0: b92c 48bf 1d22 d7bc 0a00 40bf 79b5 48bf
000001e0: c78f 43bf 3df1 35bf b637 0a3f 8912 24be
000001f0: 5a14 183e 5b6e 80be 0f30 a8be af05 083e
00000200: 2c70 30be 117c 4a3f 8abc 8bbe c9fe 9a3e
00000210: 55a8 e33e a3a7 e2bd aed2 2f3d 8d0c dab8
00000220: c400 d3bd 1a4e 4d3d 9aed 643f 352e 0dbf
00000230: f4e5 a4bd eac0 d7bd 93b1 d5bd 6ba4 9c3b
00000240: 5baf 9b3e 0bd5 ad3f 2c23 9ebe 0f68 a4bd
00000250: 9fc2 1fbf 686a 1c3e c367 85ba d292 a9bf
00000260: 50ab b73f 8cf1 433f 5d2d 0abe b894 113e
00000270: 8b42 d93e 4a11 04bf 8d84 493e 3048 493f
00000280: 1477 2dbf 38e4 f03e 6b2c 1d3f 1287 e43e
00000290: 2f1c b43d 31a2 303f 5e55 8bbc 5e7f bb3e
000002a0: 294c 8c3f 237e c7be a43d 64bd b51d e5bd
000002b0: 9695 85be a706 f33e a1ab a0be 6ac4 86be
000002c0: 20bb 743c 31a0 07be 084e c33f a49c 13bd
000002d0: 5b7a 3abd 7509 24bd 92ea e63d d122 83bf
000002e0: 25be 82bf 2f43 5b3f bf1b 583f b03d 2b3f
000002f0: 4622 b5bd 7afd aabd 4014 983e 59e2 0ebf
00000300: 1b54 353f ae7f 823f 2b73 16be 74a5 c53c
00000310: 20c6 0bbe a47f 56bb 11b8 5bbe 232e 9b3e
00000320: cd2b b3bd dda6 cf3e f7e9 253f 245b a1be
00000330: da23 bebe a9fa de3c 9633 f63e f9df a6be
00000340: 8096 503f b52d 78bd 77bb b1bc 0cdf bdbe
00000350: dadc 1b3f 56af 103e 464c 1e3f d008 e4bd
00000360: 1a15 f0be d96f 323e 6837 6f3f 7387 0ebc
00000370: 9f00 d8bd ffe0 7dbd 6723 16bf aa55 0ebf
00000380: b53c 7bbe cab1 12be b7e4 443d 707d 40be
00000390: 7db3 0abe d5fd 08be cee7 913f d6be 86be
000003a0: cae3 063f 4094 20be 6b0a cf3e 4248 fc3e
000003b0: 8212 58be fab2 373f 30dd 0e3f 0688 83bf
000003c0: 99ed bdbd b923 383f a980 5bbe 1efa f03b
000003d0: dee7 c1bd 29eb 77bf b226 613d b592 73bd
000003e0: 4104 6b3f 4196 14bf ba27 dbbc a483 393f
000003f0: 202d 953e d9f0 353e 5eb6 603f b23b 333f
0.7154191 0.45835286 -0.15365714 0.5329358 0.48503542 0.35595778 0.28676522 -0.11889715
0.7671463 0.62332153 -0.25284937 0.27651992 0.8417227 -0.0007900997 0.55996215 -0.6809811
-0.33336794 -0.48448944 0.23812327 0.41024384 0.6129327 -0.43508705 0.33869025 -0.19506268
-0.70318186 0.6358056 0.25238407 0.4791957 -0.029088788 0.3888368 0.4723734 0.62826514
0.0060494915 -1.0281311 -0.23280601 0.511225 -0.054245997 1.1382486 0.7424124 -0.1156337
0.60678405 0.35177135 0.7075064 1.2919459 -0.3113656 0.07417522 -0.6600915 0.012205085
-0.371807 -0.16961095 -0.14795308 -0.08478822 -0.20345007 -0.0909915 -0.15306409 0.09196101
0.12434095 0.12689207 0.9239909 -0.18967184 -0.7864645 0.65168405 -0.4909586 0.14580214
0.83285016 1.2235135 0.030540781 -0.09659116 -0.31887123 -0.100717895 0.90640527 -0.0450648
-0.1604197 0.6221083 0.15629935 0.111178294 -0.13648781 0.6459506 0.02722059 0.19984545
0.045265205 0.63856024 0.22044307 -0.08848973 -0.28362146 -0.6144968 -0.054484256 0.9805002
0.029737338 -0.15666308 0.7671432 0.58796006 -0.12370578 0.017126348 0.60454017 0.25945187
0.46942213 0.45793217 -0.51792157 0.021253731 0.58047557 -0.95415837 0.2735079 0.19223554
0.32506847 0.2617361 -0.12631747 -0.28114155 0.56316936 -0.43100286 -0.011184017 -0.9587549
-0.1107583 -0.6809632 0.958506 -0.067479804 -0.7819324 -0.026261384 -0.7500006 -0.78401905
-0.7639126 -0.71071225 0.5399126 -0.16022696 0.14851514 -0.25084195 -0.32849166 0.13283418
-0.1723029 0.7909556 -0.2729228 0.3027251 0.44464365 -0.110671304 0.04292553 -0.00010397388
-0.103028804 0.05012331 0.8942505 -0.5514863 -0.080516726 -0.10534842 -0.1043426 0.0047803423
0.30407223 1.358064 -0.3088621 -0.0802766 -0.62406343 0.15274966 -0.0010178018 -1.3247931
1.4349155 0.76540446 -0.13493867 0.14216888 0.4243358 -0.5158888 0.1967947 0.78625774
-0.67759824 0.47049117 0.613959 0.446343 0.08794438 0.68997484 -0.01700848 0.3662061
1.0960742 -0.38963422 -0.055722848 -0.11187307 -0.26090688 0.47466013 -0.31380942 -0.26321727
0.014937192 -0.13244702 1.5258188 -0.036038056 -0.045526844 -0.04004808 0.112752095 -1.0245
-1.0214278 0.8564939 0.8441734 0.66891 -0.08844428 -0.08349128 0.2970295 -0.5581413
0.7083146 1.0195215 -0.1469237 0.024126746 -0.13649797 -0.0032729888 -0.21456935 0.30308637
-0.08748589 0.40556994 0.6481013 -0.31514847 -0.37136728 0.027219133 0.48086232 -0.32592753
0.81479645 -0.060590465 -0.021695836 -0.37084234 0.6088387 0.14129385 0.61835134 -0.11134493
-0.468911 0.17425479 0.9344392 -0.008699286 -0.105469935 -0.06198215 -0.5864777 -0.55599463
-0.24534877 -0.14325634 0.048069682 -0.1879785 -0.13545032 -0.13378079 1.1398866 -0.2631747
0.5269133 -0.15681553 0.40437636 0.49273878 -0.2110081 0.7175747 0.55806255 -1.0275886
-0.09273834 0.7192951 -0.21435799 0.007354035 -0.09468053 -0.968432 0.054968543 -0.059466083
0.91803366 -0.5804177 -0.026752342 0.7246649 0.2913599 0.17767657 0.8777827 0.7001296

l1.bias f4 [8]
00000000: 2085 7e3f 9bfd b63f 8280 b63f 9cc8 c23f
00000010: fb71 2440 fd9d fd3e ef49 ab3f 4a06 f13f
0.9942188 1.4296144 1.4257967 1.5217471 2.5694568 0.49534598 1.3381938 1.8830044

l2.weight f4 [8, 8]
00000000: dc22 3340 eb62 36bf 0417 b83f c80d 36bf
00000010: 8811 5140 6f6c 05bf f1ec 83bf 736f 5340
00000020: adc1 0c40 e1e1 a4bf 0fe2 2bbf 1d5c ce3f
00000030: 50a9 01bf 9ff6 6c3f e183 b43f ac66 5640
00000040: 48db e5bf ccd5 8bbf 15e3 7d3f 60e9 4340
00000050: 9fa9 8dbe 51c1 1440 2498 81bf 93ff a13f
00000060: 3293 da3f 34a6 493f 13bd 2740 ff08 5240
00000070: ed21 ae3f 93b9 e9bf bdb3 4940 3a2f 0abf
00000080: 4d21 933e 90b1 e63e fd95 913f 8d09 2fbe
00000090: fa69 5dbe 057a b13f 62b3 5140 51e6 f83e
000000a0: 1a83 b4bf 5b74 7d40 3f6e 03c0 4ff9 0f3e
000000b0: 1b48 3940 7a99 1740 3c62 d83f 2928 f53f
000000c0: e799 2240 032d 68bf ce1f 4b40 9a96 a2bd
000000d0: a6da cb3f f4a6 6a40 fa35 cc3e 33ce 0fbf
000000e0: b1ec adbf 879c bd3f 71dd 1240 b15f 173f
000000f0: be4a 70bf 2573 fe3f 54c9 03bf 626a 0b40
2.7990026 -0.71244687 1.4382024 -0.7111478 3.266695 -0.5211858 -1.0306684 3.3036773
2.199321 -1.2881433 -0.67141813 1.6121861 -0.50648975 0.92563814 1.4102746 3.3500166
-1.7957544 -1.0924621 0.99174625 3.061119 -0.27668473 2.324299 -1.0124555 1.265612
1.707617 0.7876923 2.6209152 3.281799 1.3604103 -1.8259758 3.1515954 -0.5397831
0.28736344 0.45057344 1.1373898 -0.17093487 -0.21622458 1.3865362 3.2765737 0.48613217
-1.4102509 3.9602268 -2.053604 0.14059947 2.895026 2.3687425 1.6904979 1.9152881
2.5406435 -0.9069368 3.1738162 -0.07938881 1.5926101 3.66644 0.3988493 -0.5617401
-1.3587857 1.4813393 2.2947657 0.5913039 -0.9386405 1.9878889 -0.5147908 2.178368

l2.bias f4 [8]
00000000: 18f5 bc3f d00f a1be 721a 293f 468f b33f
00000010: 47c3 05bf 29ee bc3f 7a30 0cbf 719e 943f
1.4762297 -0.31457376 0.6605598 1.4028099 -0.52251095 1.4760181 -0.5476147 1.1610852

l3.weight f4 [49, 8]
00000000: 1560 793f caa1 bfbf 8af1 24be bccc b3bf
00000010: 4ea1 6dbf 142d 81bf c3e1 fe3e 4c16 87bf
00000020: a78f 29c0 d0b7 82be ae44 a0bd bc56 403e
00000030: 35a0 9cbe b2aa b83e bfb3 e7bf ae0f 75bf
00000040: e4c1 07c0 2853 adbf adff 71be 63e7 553f
00000050: ddbb ca3e 8179 3cbf 7ce3 c6be ed26 9fbf
00000060: f94f 443f 7136 e3bf af1c d0be 1ae1 c4bf
00000070: 123b 6abf 8aed 733f 76d8 20c0 f16e ecbe
00000080: d2ab 2fc0 89d9 8fbf 7d0a f23e 97af b3bf
00000090: d96f 123e 483c d23e e5e1 79bd c1ee 8bbe
000000a0: 9d2c 28bf 3d14 d5bf b7c7 b13e d4ff 9dbe
000000b0: 3ffc 10bf 8695 10be 776e cb3e b2e6 eebf
000000c0: 4342 adbe b6d8 f6be a9d2 253f 3040 03c0
000000d0: e542 58bf 5e4a 87bf 19c1 16be 664e 1c3f
000000e0: 8cc0 1e3d e98c 953e 5ada 763d 00e9 74bf
000000f0: d59c 29bf be0c 23bf 9ce5 1fbe fe55 1bc0
00000100: 4331 49bf ff33 b0be b657 5dbf d101 adbf
00000110: 5a34 043f 75d7 193f 881c 9abe 7372 1ec0
00000120: 96ee 003d 10df 5dc0 959b 81be f890 673f
00000130: 2194 523e 389f 783f 1cbb 58c0 96f0 22c0
00000140: db27 2b3e 2261 d8bf 2983 c5bf 2a59 183f
00000150: 18e1 22bf 4c0c 65be 7105 dfbe 4d4b c8bf
00000160: 3ac3 aebf 15aa 8fbd ed6e 5a3f 7577 123f
00000170: f79c a8bf d280 07c0 9f27 19c0 2669 0d3f
00000180: 15fd 0a3f 8d63 113f ded2 e1bd 90ce 4fc0
00000190: 0ab6 a7bf bfac 79be 86da 55bf 0f88 9cbe
000001a0: 6784 aabf 3926 043f 1b85 003f ee14 25be
000001b0: ec73 8cbe c957 65bf 70f2 2bc0 a1a4 a6be
000001c0: 8020 90bf 594e c0bf 41ea 8abe 9a2a 03c0
000001d0: bea7 113f e36c 773f ec72 16c0 8bae ca3e
000001e0: 6e6a f9bf a6cb 2bbf 66a5 c7bf 50c8 453f
000001f0: 6512 3f3f fb1b a13e 6539 09c0 c7ed 03c0
00000200: e303 84bf 9af6 ca3e 4334 683e 9472 413f
00000210: 3a53 373e e1a3 1cc0 582c f0be 4328 23c0
00000220: 2b87 633d 4453 bfbf af8e f5bf 20b8 383f
00000230: f969 703f 08f5 10c0 4595 2e3f 9b08 1bc0
00000240: e0fc b1bf d750 bb3d 9a5d 0a3f 85e8 37c0
00000250: 28f6 92be de05 093e ff56 9abf 3c00 133f
00000260: 1a85 3fbf 97bb 213e e82e a43e 38e9 4cbf
00000270: b7a1 28bf 7415 9cbd 7704 dfbf f481 61bf
00000280: 8b15 bcbf c5c7 5fc0 3fc3 5cbf 64bb c03e
00000290: cf0f ff3e fdd4 4d3e 77d9 87bf 379f 803d
000002a0: 2640 08c0 4022 44c0 022e d2bc 5195 e43e
000002b0: 429f 973e ffb4 263f d1bf 72be 8880 eebf
000002c0: 13b7 983e 9f63 95c0 45ec 633d 903a 193e
000002d0: 7b14 8fbf 5bcb bcbe dda8 08bf 6b09 d23e
000002e0: 647b 733e 5373 cd3e dedc 64bf 8265 9c3d
000002f0: be7b e93d c90f 47bc 1b0d b8bf a220 9dc0
00000300: be95 2cbf 8cf8 893c 761b cfbf 0d51 2ebe
00000310: f4b8 aa3c f895 953e 5783 2bc0 6c96 72bf
00000320: 9f65 8e3d 87e5 50c0 92ae 28c0 3714 ac3e
00000330: 714e d43e b87d 573e c534 183f 7f7f 6ec0
00000340: 5245 d1be 088e 943e 3cf0 60be 3165 59bf
00000350: 6ec8 5c3e e2d0 b3bf 6813 debe 402a 8abf
00000360: 2c00 d0bf 0ebc 84bf 4757 f6bf 026f ca3b
00000370: 9122 9e3e 12af 533e 0926 133f 9ee0 04c0
00000380: 29b2 96bf 57f8 8fbe d0d3 f23e b1ce a8be
00000390: e5b1 72bd 3cae 33c0 0ac1 41be 60fb 103f
000003a0: 44bb 883f 0f97 85c0 1341 33c0 92c1 8cbd
000003b0: 820f 51bf dd30 6c3f f026 74be 94bc 6ac0
000003c0: 4446 10bf a5a2 72c0 c3d5 f13e 97db 05be
000003d0: a8c0 abbc 860d bdbf fcaf ba3e d3a2 183f
000003e0: 9efb 163f 534d cc3b fc53 ccbe 6dcf 813e
000003f0: 3a5d 873d 8c1a e3bf f5b4 afbd d835 7ac0
0.97412235 -1.4971249 -0.16107765 -1.4046855 -0.92824256 -1.0091882 0.49781618 -1.055368
-2.6493928 -0.25530863 -0.078255996 0.18783087 -0.30590978 0.3606773 -1.8101729 -0.9572705
-2.1212091 -1.3541002 -0.23632689 0.83556193 0.39596453 -0.736229 -0.38845432 -1.2433754
0.7668453 -1.7750989 -0.40646884 -1.5381196 -0.91496384 0.9528433 -2.5132117 -0.46178392
-2.744862 -1.1238261 0.47273627 -1.4037961 0.14300479 0.41061616 -0.061006445 -0.27330592
-0.65693074 -1.6646801 0.34722683 -0.30859244 -0.56634897 -0.14119539 0.39732715 -1.8664153
-0.33839616 -0.48212212 0.64774567 -2.0507927 -0.8447707 -1.056957 -0.14722098 0.61057127
0.038757846 0.29209068 0.06026683 -0.9566803 -0.6625493 -0.6369132 -0.15614933 -2.4271235
-0.7859079 -0.3441467 -0.8646196 -1.3516179 0.5164238 0.60094386 -0.30099893 -2.4757354
0.031477533 -3.4667397 -0.25314012 0.9045558 0.20564319 0.9711795 -3.3864202 -2.5459342
0.16714422 -1.6904643 -1.5430652 0.59511054 -0.63624716 -0.22367972 -0.4355884 -1.564798
-1.3653328 -0.070148624 0.8532551 0.57213527 -1.3172902 -2.1172376 -2.3930433 0.5523857
0.5429242 0.5679253 -0.11026548 -3.2469826 -1.3102429 -0.24382304 -0.83536565 -0.30572554
-1.3321656 0.51620823 0.502031 -0.16121265 -0.2743219 -0.89587075 -2.6866722 -0.32547477
-1.1259918 -1.502391 -0.27131847 -2.0494752 0.5689658 0.9665052 -2.3507643 0.3958629
-1.9485605 -0.6710762 -1.5597351 0.7725878 0.7463744 0.3146666 -2.144128 -2.0613878
-1.0313686 0.39641267 0.22676186 0.7556546 0.17902842 -2.4475024 -0.46908832 -2.5493324
0.055548828 -1.4947286 -1.9184169 0.7215595 0.939117 -2.2649555 0.6819652 -2.4224002
-1.3905296 0.09146278 0.54049075 -2.8735669 -0.28703427 0.13381144 -1.2057799 0.5742223
-0.7481247 0.15794216 0.32067037 -0.80043364 -0.6587176 -0.07621279 -1.7423238 -0.8808892
-1.4694074 -3.496568 -0.8623542 0.37642968 0.49816748 0.2010078 -1.061324 0.06280368
-2.1289153 -3.0645905 -0.025656704 0.4464517 0.29613692 0.6511993 -0.23705985 -1.8632975
0.29827175 -4.668411 0.055645246 0.14963746 -1.1178125 -0.36873898 -0.53382665 0.4102281
0.23777539 0.40127048 -0.89399517 0.076365486 0.11400555 -0.01214976 -1.4379 -4.9102335
-0.6741599 0.01684215 -1.6180255 -0.17023106 0.020840146 0.2921598 -2.6798913 -0.94760776
0.069529764 -3.2640092 -2.635655 0.33609173 0.41466096 0.21044052 0.5945552 -3.7265317
-0.408732 0.2901461 -0.21966642 -0.8492003 0.21560833 -1.4048121 -0.4337418 -1.0794144
-1.6250052 -1.036989 -1.9245385 0.006177784 0.30885747 0.20672253 0.5747991 -2.0762095
-1.177312 -0.28119156 0.47427225 -0.32970193 -0.059251685 -2.8075094 -0.18921295 0.5663357
1.0682149 -4.17469 -2.8008468 -0.06872858 -0.8166429 0.9226206 -0.23842978 -3.66776
-0.56357217 -3.791177 0.472334 -0.13072048 -0.02096589 -1.4769752 0.3646239 0.5962345
0.5897769 0.0062348037 -0.39907825 0.25353566 0.066095784 -1.7742476 -0.08579437 -3.9095364

l3.bias f4 [49]
00000000: 0420 44bd c534 f0bd e2f4 10be 52b6 903e
00000010: 66c4 eebd 71b8 f3be 86a2 ba3e 4c93 8ebe
00000020: 3d15 21bf 5e20 3e3f 47fe 2f3f b668 ca3e
00000030: eadf 4b3e 62a3 debe fd6d 963d 80cc cdbb
00000040: 3cef 823e b94c eebc f6f5 16be 9e2a 08bf
00000050: 3f1f 133e 014c 8c3d 3f5d 63bd d2d6 0bbf
00000060: b42b 3f3d cb74 87be a2e4 6cbf 3be8 e2bc
00000070: 023d b5bd f62e c83e e3d4 3fbe 86bf 13bf
00000080: b164 c83e dd80 06be dca9 67be f2b0 1b3f
00000090: bf79 8dbd 9f5d 803d ff11 5dbe 2fd8 be3e
000000a0: 1845 6f3e 5057 f4be 5e4c 3bbf 67ac a1be
000000b0: ecff dcbe 09a5 debd 8bb1 cf3d f5aa fe3d
000000c0: cf44 53bd
-0.047882095 -0.11728815 -0.14155915 0.282641 -0.11658554 -0.47601655 0.3645212 -0.27846754
-0.6292303 0.7426814 0.6874737 0.39533013 0.19909635 -0.43484026 0.07345197 -0.006280482
0.25573146 -0.029089319 -0.14742264 -0.5319003 0.14367388 0.06850434 -0.05550885 -0.54624665
0.046672538 -0.26456293 -0.92536366 -0.027698627 -0.08849527 0.39098328 -0.18733554 -0.57714117
0.3913932 -0.13135095 -0.2262339 0.6081687 -0.06907987 0.06267857 -0.21588896 0.3727431
0.23366201 -0.47722864 -0.731634 -0.31576845 -0.43164003 -0.10871322 0.101412855 0.12434951
-0.051579293
